X_train shape: (50000, 32, 32, 3)
50000 train samples
10000 test samples
(32, 32, 3)
_________________________________________________________________
Layer (type)                 Output Shape              Param #   
=================================================================
conv2d_1 (Conv2D)            (None, 32, 32, 96)        2688      
_________________________________________________________________
activation_1 (Activation)    (None, 32, 32, 96)        0         
_________________________________________________________________
conv2d_2 (Conv2D)            (None, 32, 32, 96)        83040     
_________________________________________________________________
activation_2 (Activation)    (None, 32, 32, 96)        0         
_________________________________________________________________
conv2d_3 (Conv2D)            (None, 16, 16, 96)        83040     
_________________________________________________________________
dropout_1 (Dropout)          (None, 16, 16, 96)        0         
_________________________________________________________________
conv2d_4 (Conv2D)            (None, 16, 16, 192)       166080    
_________________________________________________________________
activation_3 (Activation)    (None, 16, 16, 192)       0         
_________________________________________________________________
conv2d_5 (Conv2D)            (None, 16, 16, 192)       331968    
_________________________________________________________________
activation_4 (Activation)    (None, 16, 16, 192)       0         
_________________________________________________________________
conv2d_6 (Conv2D)            (None, 8, 8, 192)         331968    
_________________________________________________________________
dropout_2 (Dropout)          (None, 8, 8, 192)         0         
_________________________________________________________________
conv2d_7 (Conv2D)            (None, 8, 8, 192)         331968    
_________________________________________________________________
activation_5 (Activation)    (None, 8, 8, 192)         0         
_________________________________________________________________
conv2d_8 (Conv2D)            (None, 8, 8, 192)         37056     
_________________________________________________________________
activation_6 (Activation)    (None, 8, 8, 192)         0         
_________________________________________________________________
conv2d_9 (Conv2D)            (None, 8, 8, 10)          1930      
_________________________________________________________________
global_average_pooling2d_1 ( (None, 10)                0         
_________________________________________________________________
activation_7 (Activation)    (None, 10)                0         
=================================================================
Total params: 1,369,738
Trainable params: 1,369,738
Non-trainable params: 0
_________________________________________________________________
None
Epoch 1/350
   1/1562 [..............................] - ETA: 879s - loss: 2.3127 - acc: 0.0312
…
