…
  model.add(Convolution2D(192, 3, 3, border_mode='same'))
all_CNN_keras_ref.py:59: UserWarning: Update your `Conv2D` call to the Keras 2 API: `Conv2D(192, (1, 1), padding="valid")`
  model.add(Convolution2D(192, 1, 1, border_mode='valid'))
all_CNN_keras_ref.py:61: UserWarning: Update your `Conv2D` call to the Keras 2 API: `Conv2D(10, (1, 1), padding="valid")`
  model.add(Convolution2D(10, 1, 1, border_mode='valid'))
_________________________________________________________________
Layer (type)                 Output Shape              Param #   
=================================================================
conv2d_1 (Conv2D)            (None, 32, 32, 96)        2688      
_________________________________________________________________
activation_1 (Activation)    (None, 32, 32, 96)        0         
_________________________________________________________________
conv2d_2 (Conv2D)            (None, 32, 32, 96)        83040     
_________________________________________________________________
activation_2 (Activation)    (None, 32, 32, 96)        0         
_________________________________________________________________
conv2d_3 (Conv2D)            (None, 16, 16, 96)        83040     
_________________________________________________________________
dropout_1 (Dropout)          (None, 16, 16, 96)        0         
_________________________________________________________________
conv2d_4 (Conv2D)            (None, 16, 16, 192)       166080    
_________________________________________________________________
activation_3 (Activation)    (None, 16, 16, 192)       0         
_________________________________________________________________
conv2d_5 (Conv2D)            (None, 16, 16, 192)       331968    
_________________________________________________________________
activation_4 (Activation)    (None, 16, 16, 192)       0         
_________________________________________________________________
conv2d_6 (Conv2D)            (None, 8, 8, 192)         331968    
_________________________________________________________________
dropout_2 (Dropout)          (None, 8, 8, 192)         0         
_________________________________________________________________
conv2d_7 (Conv2D)            (None, 8, 8, 192)         331968    
_________________________________________________________________
activation_5 (Activation)    (None, 8, 8, 192)         0         
_________________________________________________________________
conv2d_8 (Conv2D)            (None, 8, 8, 192)         37056     
_________________________________________________________________
activation_6 (Activation)    (None, 8, 8, 192)         0         
_________________________________________________________________
conv2d_9 (Conv2D)            (None, 8, 8, 10)          1930      
_________________________________________________________________
global_average_pooling2d_1 ( (None, 10)                0         
_________________________________________________________________
activation_7 (Activation)    (None, 10)                0         
=================================================================
Total params: 1,369,738
Trainable params: 1,369,738
Non-trainable params: 0
_________________________________________________________________
None
2017-10-25 11:26:15.001275: W tensorflow/core/platform/cpu_feature_guard.cc:45] The TensorFlow library wasn't compiled to use SSE4.1 instructions, but these are available on your machine and could speed up CPU computations.
…
